…
hvision\n\ndevice = torch.device('cuda' if torch.cuda.is_available() else 'cpu')\nmodel = torchvision.models.alexnet(pretrained=False)\nmodel.to(device)\nfrom torchinfo import summary\nsummary(model, [1,3,227,227])\n\n==========================================================================================\nLayer (type:depth-idx)                   Output Shape              Param #\n==========================================================================================\nAlexNet                                  --                        --\n\u251c\u2500Sequential: 1-1                        [1, 128, 6, 6]            --\n\u2502    \u2514\u2500Conv2d: 2-1                       [1, 48, 55, 55]           17,472\n\u2502    \u2514\u2500ReLU: 2-2                         [1, 48, 55, 55]           --\n\u2502    \u2514\u2500MaxPool2d: 2-3                    [1, 48, 27, 27]           --\n\u2502    \u2514\u2500Conv2d: 2-4                       [1, 128, 27, 27]          153,728\n\u2502    \u2514\u2500ReLU: 2-5                         [1, 128, 27, 27]          --\n\u2502    \u2514\u2500MaxPool2d: 2-6                    [1, 128, 13, 13]          --\n\u2502    \u2514\u2500Conv2d: 2-7                       [1, 192, 13, 13]          221,376\n\u2502    \u2514\u2500ReLU: 2-8                         [1, 192, 13, 13]          --\n\u2502    \u2514\u2500Conv2d: 2-9                       [1, 192, 13, 13]          331,968\n\u2502    \u2514\u2500ReLU: 2-10                        [1, 192, 13, 13]          --\n\u2502    \u2514\u2500Conv2d: 2-11                      [1, 128, 13, 13]          221,312\n\u2502    \u2514\u2500ReLU: 2-12                        [1, 128, 13, 13]          --\n\u2502    \u2514\u2500MaxPool2d: 2-13                   [1, 128, 6, 6]            --\n\u251c\u2500Sequential: 1-2                        [1, 1000]                 --\n\u2502    \u2514\u2500Linear: 2-14                      [1, 2048]                 9,439,232\n\u2502    \u2514\u2500ReLU: 2-15                        [1, 2048]                 --\n\u2502    \u2514\u2500Dropout: 2-16                     [1, 2048]                 --\n\u2502    \u2514\u2500Linear: 2-17                      [1, 2048]                 4,196,352\n\u2502    \u2514\u2500ReLU: 2-18                        [1, 2048]                 --\n\u2502    \u2514\u2500Linear: 2-19                      [1, 1000]                 2,049,000\n==========================================================================================\nTotal params: 16,630,440\nTrainable params: 16,630,440\nNon-trainable params: 0\nTotal mult-adds (M): 311.52\n==========================================================================================\nInput size (MB): 0.60\nForward/backward pass size (MB): 2.64\nParams size (MB): 66.52\nEstimated Total S
…
